{"class_name": "Sequential", "config": {"name": "sequential", "layers": [{"class_name": "InputLayer", "config": {"batch_input_shape": [null, 28, 28, 1], "dtype": "float32", "sparse": false, "ragged": false, "name": "conv2d_input"}}, {"class_name": "Conv2D", "config": {"name": "conv2d", "trainable": true, "batch_input_shape": [null, 28, 28, 1], "dtype": "float32", "filters": 32, "kernel_size": [3, 3], "strides": [1, 1], "padding": "valid", "data_format": "channels_last", "dilation_rate": [1, 1], "groups": 1, "activation": "relu", "use_bias": true, "kernel_initializer": {"class_name": "GlorotUniform", "config": {"seed": null}}, "bias_initializer": {"class_name": "Zeros", "config": {}}, "kernel_regularizer": null, "bias_regularizer": null, "activity_regularizer": null, "kernel_constraint": null, "bias_constraint": null}}, {"class_name": "Lambda", "config": {"name": "lambda", "trainable": true, "dtype": "float32", "function": ["4wEAAAAAAAAAAwAAAAUAAABDAAAAczYAAAB0AGoBfABkAWQBZAKNA30BdABqAXwACwBkAWQBZAKN\nAwsAfQJ0AGoCfAF8AmcCZANkBI0CUwApBfoMTWluIFBvb2xpbmcuKQLpAgAAAHICAAAAKQLaCXBv\nb2xfc2l6ZdoHc3RyaWRlc+kBAAAAKQHaBGF4aXMpA9oBS9oGcG9vbDJk2gtjb25jYXRlbmF0ZSkD\n2gF42gVtYXhfeNoFbWluX3ipAHINAAAA+jRlOi9NYW5tYWRlL2dpdEh1YlJlcG8vbWwtaWRlbnRp\nZmllci9rbW5pc3QvbW9kZWw3LnB52g5taW5fbWF4X3Bvb2wyZBYAAABzBgAAAAACEAEUAQ==\n", null, null], "function_type": "lambda", "module": "__main__", "output_shape": ["4wEAAAAAAAAAAgAAAAQAAABDAAAAcyAAAAB0AHwAgwF9AXwBZAEFABkAZAI5AAMAPAB0AXwBgwFT\nACkD+hJNaW4gUG9vbGluZyBTaGFwZS7pAQAAAOkCAAAAKQLaBGxpc3TaBXR1cGxlKQLaC2lucHV0\nX3NoYXBl2gVzaGFwZakAcggAAAD6NGU6L01hbm1hZGUvZ2l0SHViUmVwby9tbC1pZGVudGlmaWVy\nL2ttbmlzdC9tb2RlbDcucHnaG21pbl9tYXhfcG9vbDJkX291dHB1dF9zaGFwZRwAAABzBgAAAAAC\nCAEQAQ==\n", null, null], "output_shape_type": "lambda", "output_shape_module": "__main__", "arguments": {}}}, {"class_name": "Conv2D", "config": {"name": "conv2d_1", "trainable": true, "dtype": "float32", "filters": 64, "kernel_size": [3, 3], "strides": [1, 1], "padding": "valid", "data_format": "channels_last", "dilation_rate": [1, 1], "groups": 1, "activation": "relu", "use_bias": true, "kernel_initializer": {"class_name": "GlorotUniform", "config": {"seed": null}}, "bias_initializer": {"class_name": "Zeros", "config": {}}, "kernel_regularizer": null, "bias_regularizer": null, "activity_regularizer": null, "kernel_constraint": null, "bias_constraint": null}}, {"class_name": "MaxPooling2D", "config": {"name": "max_pooling2d", "trainable": true, "dtype": "float32", "pool_size": [2, 2], "padding": "valid", "strides": [2, 2], "data_format": "channels_last"}}, {"class_name": "Dropout", "config": {"name": "dropout", "trainable": true, "dtype": "float32", "rate": 0.25, "noise_shape": null, "seed": null}}, {"class_name": "Flatten", "config": {"name": "flatten", "trainable": true, "dtype": "float32", "data_format": "channels_last"}}, {"class_name": "Dense", "config": {"name": "dense", "trainable": true, "dtype": "float32", "units": 128, "activation": "relu", "use_bias": true, "kernel_initializer": {"class_name": "GlorotUniform", "config": {"seed": null}}, "bias_initializer": {"class_name": "Zeros", "config": {}}, "kernel_regularizer": null, "bias_regularizer": null, "activity_regularizer": null, "kernel_constraint": null, "bias_constraint": null}}, {"class_name": "Dropout", "config": {"name": "dropout_1", "trainable": true, "dtype": "float32", "rate": 0.5, "noise_shape": null, "seed": null}}, {"class_name": "Dense", "config": {"name": "dense_1", "trainable": true, "dtype": "float32", "units": 10, "activation": "softmax", "use_bias": true, "kernel_initializer": {"class_name": "GlorotUniform", "config": {"seed": null}}, "bias_initializer": {"class_name": "Zeros", "config": {}}, "kernel_regularizer": null, "bias_regularizer": null, "activity_regularizer": null, "kernel_constraint": null, "bias_constraint": null}}]}, "keras_version": "2.6.0", "backend": "tensorflow"}